2020-05-25 13:19:34,349 Model(
  (ad_id_embedding): Embedding(579847, 256, padding_idx=0)
  (product_id_embedding): Embedding(11108, 256, padding_idx=0)
  (product_category_embedding): Embedding(20, 8, padding_idx=0)
  (advertiser_id_embedding): Embedding(24366, 256, padding_idx=0)
  (industry_embedding): Embedding(302, 32, padding_idx=0)
  (gru): GRU(808, 128, batch_first=True, bidirectional=True)
  (fc): Sequential(
    (0): Dropout(p=0.2)
    (1): Linear(in_features=256, out_features=128, bias=True)
    (2): LeakyReLU(negative_slope=0.01, inplace)
    (3): BatchNorm1d(128, eps=1e-05, momentum=0.1, affine=True, track_running_stats=True)
    (4): Linear(in_features=128, out_features=64, bias=True)
    (5): LeakyReLU(negative_slope=0.01, inplace)
    (6): BatchNorm1d(64, eps=1e-05, momentum=0.1, affine=True, track_running_stats=True)
    (7): Linear(in_features=64, out_features=10, bias=True)
  )
)
2020-05-25 13:19:42,859 start loading data ...
2020-05-25 13:21:21,281 load data success, Time usage: 0:01:38
2020-05-25 13:21:21,283 Epoch [1/5]
2020-05-25 13:21:35,425 Iter:      0,  Train Loss:   2.5,  Train Acc: 16.41%,  Val Loss:  2.31,  Val Acc:  4.01%,  Val Auc:    0.0,  Time: 0:00:14 *
2020-05-25 13:21:52,896 Iter:    100,  Train Loss:   1.9,  Train Acc: 27.34%,  Val Loss:  1.91,  Val Acc: 27.22%,  Val Auc:    0.0,  Time: 0:00:32 *
…
