2020-05-24 22:45:49,319 Model(
  (ad_id_embedding): Embedding(579847, 256, padding_idx=0)
  (product_id_embedding): Embedding(11108, 256, padding_idx=0)
  (product_category_embedding): Embedding(20, 8, padding_idx=0)
  (advertiser_id_embedding): Embedding(24366, 256, padding_idx=0)
  (industry_embedding): Embedding(302, 32, padding_idx=0)
  (convs): ModuleList(
    (0): Conv2d(1, 50, kernel_size=(2, 808), stride=(1, 1))
    (1): Conv2d(1, 50, kernel_size=(3, 808), stride=(1, 1))
    (2): Conv2d(1, 50, kernel_size=(4, 808), stride=(1, 1))
    (3): Conv2d(1, 50, kernel_size=(5, 808), stride=(1, 1))
  )
  (fc): Sequential(
    (0): Dropout(p=0.3)
    (1): Linear(in_features=200, out_features=10, bias=True)
  )
)
2020-05-24 22:45:58,553 start loading data ...
2020-05-24 22:47:36,690 load data success, Time usage: 0:01:38
2020-05-24 22:47:36,772 Epoch [1/5]
2020-05-24 22:47:51,234 Iter:      0,  Train Loss:   2.3,  Train Acc: 16.41%,  Val Loss:  2.25,  Val Acc: 15.37%,  Val Auc:    0.0,  Time: 0:00:15 *
2020-05-24 22:48:14,895 Iter:    100,  Train Loss:  1.78,  Train Acc: 25.78%,  Val Loss:  1.77,  Val Acc: 29.89%,  Val Auc:    0.0,  Time: 0:00:38 *
…
