2020-05-24 22:11:12,060 Model(
  (ad_id_embedding): Embedding(579847, 256, padding_idx=0)
  (product_id_embedding): Embedding(11108, 256, padding_idx=0)
  (product_category_embedding): Embedding(20, 8, padding_idx=0)
  (advertiser_id_embedding): Embedding(24366, 256, padding_idx=0)
  (industry_embedding): Embedding(302, 32, padding_idx=0)
  (convs): ModuleList(
    (0): Conv2d(1, 50, kernel_size=(2, 808), stride=(1, 1))
    (1): Conv2d(1, 50, kernel_size=(3, 808), stride=(1, 1))
    (2): Conv2d(1, 50, kernel_size=(4, 808), stride=(1, 1))
    (3): Conv2d(1, 50, kernel_size=(5, 808), stride=(1, 1))
  )
  (fc): Sequential(
    (0): Dropout(p=0.3)
    (1): Linear(in_features=200, out_features=2, bias=True)
  )
)
2020-05-24 22:11:22,029 start loading data ...
2020-05-24 22:12:59,429 load data success, Time usage: 0:01:37
2020-05-24 22:12:59,430 Epoch [1/5]
2020-05-24 22:13:11,413 Iter:      0,  Train Loss: 0.866,  Train Acc: 34.38%,  Val Loss: 0.686,  Val Acc: 66.93%,  Val Auc: 0.5261,  Time: 0:00:12 *
2020-05-24 22:13:34,200 Iter:    100,  Train Loss: 0.332,  Train Acc: 86.72%,  Val Loss: 0.344,  Val Acc: 85.02%,  Val Auc: 0.9159,  Time: 0:00:35 *
…
