2020-05-25 02:46:04,957 Model(
  (ad_id_embedding): Embedding(579847, 256, padding_idx=0)
  (product_id_embedding): Embedding(11108, 256, padding_idx=0)
  (advertiser_id_embedding): Embedding(24366, 256, padding_idx=0)
  (industry_embedding): Embedding(302, 32, padding_idx=0)
  (position_encoding): PositionalEncoding(
    (dropout): Dropout(p=0.1)
  )
  (encoder): Encoder(
    (attention): MultiHeadAttention(
      (fc_Q): Linear(in_features=800, out_features=800, bias=True)
      (fc_K): Linear(in_features=800, out_features=800, bias=True)
      (fc_V): Linear(in_features=800, out_features=800, bias=True)
      (fc): Linear(in_features=800, out_features=800, bias=True)
      (dropout): Dropout(p=0.1)
      (layer_norm): LayerNorm(torch.Size([800]), eps=1e-05, elementwise_affine=True)
    )
    (feed_forward): PositionWiseFeedForward(
      (fc): Sequential(
        (0): Linear(in_features=800, out_features=512, bias=True)
        (1): LeakyReLU(negative_slope=0.01, inplace)
        (2): Linear(in_features=512, out_features=800, bias=True)
        (3): Dropout(p=0.2)
      )
      (layer_norm): LayerNorm(torch.Size([800]), eps=1e-05, elementwise_affine=True)
    )
  )
  (fc): Sequential(
    (0): Linear(in_features=800, out_features=128, bias=True)
    (1): LeakyReLU(negative_slope=0.01, inplace)
    (2): Linear(in_features=128, out_features=10, bias=True)
  )
)
2020-05-25 02:46:05,374 start loading data ...
2020-05-25 02:47:44,092 load data success, Time usage: 0:01:39
2020-05-25 02:47:44,096 Epoch [1/5]
2020-05-25 02:48:02,392 Iter:      0,  Train Loss:  2.37,  Train Acc: 12.50%,  Val Loss:  4.28,  Val Acc: 22.60%,  Val Auc:    0.0,  Time: 0:00:18 *
2020-05-25 02:48:26,440 Iter:    100,  Train Loss:  2.07,  Train Acc: 15.62%,  Val Loss:  2.04,  Val Acc: 20.63%,  Val Auc:    0.0,  Time: 0:00:42 *
…
