2020-05-25 11:17:28,650 Model(
  (ad_id_embedding): Embedding(579847, 256, padding_idx=0)
  (product_id_embedding): Embedding(11108, 256, padding_idx=0)
  (advertiser_id_embedding): Embedding(24366, 256, padding_idx=0)
  (industry_embedding): Embedding(302, 16, padding_idx=0)
  (position_embedding): Embedding(80, 16)
  (encoder): Encoder(
    (attention): MultiHeadAttention(
      (fc_Q): Linear(in_features=800, out_features=800, bias=True)
      (fc_K): Linear(in_features=800, out_features=800, bias=True)
      (fc_V): Linear(in_features=800, out_features=800, bias=True)
      (fc): Linear(in_features=800, out_features=800, bias=True)
      (dropout): Dropout(p=0.1)
      (layer_norm): LayerNorm(torch.Size([800]), eps=1e-05, elementwise_affine=True)
    )
  )
  (fc): Sequential(
    (0): Linear(in_features=64000, out_features=1024, bias=True)
    (1): LeakyReLU(negative_slope=0.01, inplace)
    (2): BatchNorm1d(1024, eps=1e-05, momentum=0.1, affine=True, track_running_stats=True)
    (3): Linear(in_features=1024, out_features=128, bias=True)
    (4): LeakyReLU(negative_slope=0.01, inplace)
    (5): BatchNorm1d(128, eps=1e-05, momentum=0.1, affine=True, track_running_stats=True)
    (6): Linear(in_features=128, out_features=10, bias=True)
  )
)
2020-05-25 11:17:41,102 start loading data ...
2020-05-25 11:19:12,740 load data success, Time usage: 0:01:32
2020-05-25 11:19:12,743 Epoch [1/5]
2020-05-25 11:19:30,049 Iter:      0,  Train Loss:  2.66,  Train Acc: 10.94%,  Val Loss:  6.11,  Val Acc: 16.11%,  Val Auc:    0.0,  Time: 0:00:17 *
2020-05-25 11:19:51,707 Iter:    100,  Train Loss:  1.83,  Train Acc: 31.25%,  Val Loss:  1.89,  Val Acc: 28.76%,  Val Auc:    0.0,  Time: 0:00:39 *
…
