2020-05-25 22:17:33,169 Model(
  (ad_id_embedding): Embedding(579847, 256, padding_idx=0)
  (product_id_embedding): Embedding(11108, 256, padding_idx=0)
  (advertiser_id_embedding): Embedding(24366, 256, padding_idx=0)
  (industry_embedding): Embedding(302, 16, padding_idx=0)
  (position_embedding): Embedding(100, 16)
  (encoder): Encoder(
    (attention): MultiHeadAttention(
      (fc_Q): Linear(in_features=800, out_features=800, bias=True)
      (fc_K): Linear(in_features=800, out_features=800, bias=True)
      (fc_V): Linear(in_features=800, out_features=800, bias=True)
      (fc): Linear(in_features=800, out_features=800, bias=True)
      (dropout): Dropout(p=0.1)
      (layer_norm): LayerNorm(torch.Size([800]), eps=1e-05, elementwise_affine=True)
    )
  )
  (fc): Sequential(
    (0): Linear(in_features=800, out_features=128, bias=True)
    (1): LeakyReLU(negative_slope=0.01, inplace)
    (2): BatchNorm1d(128, eps=1e-05, momentum=0.1, affine=True, track_running_stats=True)
    (3): Linear(in_features=128, out_features=2, bias=True)
  )
)
2020-05-25 22:17:40,342 start loading data ...
2020-05-25 22:19:15,978 load data success, Time usage: 0:01:36
2020-05-25 22:19:16,068 Epoch [1/5]
2020-05-25 22:19:32,697 Iter:      0,  Train Loss: 0.795,  Train Acc: 50.00%,  Val Loss: 0.715,  Val Acc: 54.30%,  Val Auc: 0.5882,  Time: 0:00:17 *
2020-05-25 22:19:56,075 Iter:    100,  Train Loss: 0.251,  Train Acc: 89.06%,  Val Loss:   0.3,  Val Acc: 87.84%,  Val Auc: 0.9428,  Time: 0:00:40 *
…
